Elevation(
  (feature_extraction): DinoVisionTransformer(
    (patch_embed): PatchEmbed(
      (proj): Conv2d(3, 384, kernel_size=(14, 14), stride=(14, 14))
      (norm): Identity()
    )
    (blocks): ModuleList(
      (0-11): 12 x NestedTensorBlock(
        (norm1): LayerNorm((384,), eps=1e-06, elementwise_affine=True)
        (attn): MemEffAttention(
          (qkv): Linear(in_features=384, out_features=1152, bias=True)
          (proj): Linear(in_features=384, out_features=384, bias=True)
          (proj_drop): Dropout(p=0.0, inplace=False)
        )
        (ls1): LayerScale()
        (drop_path1): Identity()
        (norm2): LayerNorm((384,), eps=1e-06, elementwise_affine=True)
        (mlp): Mlp(
          (fc1): Linear(in_features=384, out_features=1536, bias=True)
          (act): GELU(approximate='none')
          (fc2): Linear(in_features=1536, out_features=384, bias=True)
          (drop): Dropout(p=0.0, inplace=False)
        )
        (ls2): LayerScale()
        (drop_path2): Identity()
      )
    )
    (norm): LayerNorm((384,), eps=1e-06, elementwise_affine=True)
    (head): Identity()
  )
  (transition_layer): patch2feature(
    (projects): ModuleList(
      (0): Conv2d(384, 48, kernel_size=(1, 1), stride=(1, 1))
      (1): Conv2d(384, 96, kernel_size=(1, 1), stride=(1, 1))
      (2): Conv2d(384, 192, kernel_size=(1, 1), stride=(1, 1))
      (3): Conv2d(384, 384, kernel_size=(1, 1), stride=(1, 1))
    )
    (resize_layers): ModuleList(
      (0): ConvTranspose2d(48, 48, kernel_size=(4, 4), stride=(4, 4))
      (1): ConvTranspose2d(96, 96, kernel_size=(2, 2), stride=(2, 2))
      (2): Identity()
      (3): Conv2d(384, 384, kernel_size=(3, 3), stride=(2, 2), padding=(1, 1))
    )
    (norm): LayerNorm((384,), eps=1e-05, elementwise_affine=True)
    (scratch): Module(
      (layer1_rn): Conv2d(48, 128, kernel_size=(3, 3), stride=(1, 1), padding=(1, 1), bias=False)
      (layer2_rn): Conv2d(96, 128, kernel_size=(3, 3), stride=(1, 1), padding=(1, 1), bias=False)
      (layer3_rn): Conv2d(192, 128, kernel_size=(3, 3), stride=(1, 1), padding=(1, 1), bias=False)
      (layer4_rn): Conv2d(384, 128, kernel_size=(3, 3), stride=(1, 1), padding=(1, 1), bias=False)
      (output_conv1): Conv2d(128, 128, kernel_size=(3, 3), stride=(1, 1), padding=(1, 1))
      (refinenet1): FeatureFusionBlock(
        (resConfUnit1): ResidualConvUnit(
          (conv1): Conv2d(128, 128, kernel_size=(3, 3), stride=(1, 1), padding=(1, 1))
          (conv2): Conv2d(128, 128, kernel_size=(3, 3), stride=(1, 1), padding=(1, 1))
          (norm1): BatchNorm2d(128, eps=1e-05, momentum=0.1, affine=True, track_running_stats=True)
          (norm2): BatchNorm2d(128, eps=1e-05, momentum=0.1, affine=True, track_running_stats=True)
          (activation): ReLU()
          (skip_add): FloatFunctional(
            (activation_post_process): Identity()
          )
        )
        (resConfUnit2): ResidualConvUnit(
          (conv1): Conv2d(128, 128, kernel_size=(3, 3), stride=(1, 1), padding=(1, 1))
          (conv2): Conv2d(128, 128, kernel_size=(3, 3), stride=(1, 1), padding=(1, 1))
          (norm1): BatchNorm2d(128, eps=1e-05, momentum=0.1, affine=True, track_running_stats=True)
          (norm2): BatchNorm2d(128, eps=1e-05, momentum=0.1, affine=True, track_running_stats=True)
          (activation): ReLU()
          (skip_add): FloatFunctional(
            (activation_post_process): Identity()
          )
        )
        (out_conv): Sequential(
          (0): Conv2d(128, 128, kernel_size=(1, 1), stride=(1, 1), bias=False)
          (1): BatchNorm2d(128, eps=1e-05, momentum=0.1, affine=True, track_running_stats=True)
        )
        (skip_add): FloatFunctional(
          (activation_post_process): Identity()
        )
      )
      (refinenet2): FeatureFusionBlock(
        (resConfUnit1): ResidualConvUnit(
          (conv1): Conv2d(128, 128, kernel_size=(3, 3), stride=(1, 1), padding=(1, 1))
          (conv2): Conv2d(128, 128, kernel_size=(3, 3), stride=(1, 1), padding=(1, 1))
          (norm1): BatchNorm2d(128, eps=1e-05, momentum=0.1, affine=True, track_running_stats=True)
          (norm2): BatchNorm2d(128, eps=1e-05, momentum=0.1, affine=True, track_running_stats=True)
          (activation): ReLU()
          (skip_add): FloatFunctional(
            (activation_post_process): Identity()
          )
        )
        (resConfUnit2): ResidualConvUnit(
          (conv1): Conv2d(128, 128, kernel_size=(3, 3), stride=(1, 1), padding=(1, 1))
          (conv2): Conv2d(128, 128, kernel_size=(3, 3), stride=(1, 1), padding=(1, 1))
          (norm1): BatchNorm2d(128, eps=1e-05, momentum=0.1, affine=True, track_running_stats=True)
          (norm2): BatchNorm2d(128, eps=1e-05, momentum=0.1, affine=True, track_running_stats=True)
          (activation): ReLU()
          (skip_add): FloatFunctional(
            (activation_post_process): Identity()
          )
        )
        (out_conv): Sequential(
          (0): Conv2d(128, 128, kernel_size=(1, 1), stride=(1, 1), bias=False)
          (1): BatchNorm2d(128, eps=1e-05, momentum=0.1, affine=True, track_running_stats=True)
        )
        (skip_add): FloatFunctional(
          (activation_post_process): Identity()
        )
      )
      (refinenet3): FeatureFusionBlock(
        (resConfUnit1): ResidualConvUnit(
          (conv1): Conv2d(128, 128, kernel_size=(3, 3), stride=(1, 1), padding=(1, 1))
          (conv2): Conv2d(128, 128, kernel_size=(3, 3), stride=(1, 1), padding=(1, 1))
          (norm1): BatchNorm2d(128, eps=1e-05, momentum=0.1, affine=True, track_running_stats=True)
          (norm2): BatchNorm2d(128, eps=1e-05, momentum=0.1, affine=True, track_running_stats=True)
          (activation): ReLU()
          (skip_add): FloatFunctional(
            (activation_post_process): Identity()
          )
        )
        (resConfUnit2): ResidualConvUnit(
          (conv1): Conv2d(128, 128, kernel_size=(3, 3), stride=(1, 1), padding=(1, 1))
          (conv2): Conv2d(128, 128, kernel_size=(3, 3), stride=(1, 1), padding=(1, 1))
          (norm1): BatchNorm2d(128, eps=1e-05, momentum=0.1, affine=True, track_running_stats=True)
          (norm2): BatchNorm2d(128, eps=1e-05, momentum=0.1, affine=True, track_running_stats=True)
          (activation): ReLU()
          (skip_add): FloatFunctional(
            (activation_post_process): Identity()
          )
        )
        (out_conv): Sequential(
          (0): Conv2d(128, 128, kernel_size=(1, 1), stride=(1, 1), bias=False)
          (1): BatchNorm2d(128, eps=1e-05, momentum=0.1, affine=True, track_running_stats=True)
        )
        (skip_add): FloatFunctional(
          (activation_post_process): Identity()
        )
      )
      (refinenet4): FeatureFusionBlock(
        (resConfUnit2): ResidualConvUnit(
          (conv1): Conv2d(128, 128, kernel_size=(3, 3), stride=(1, 1), padding=(1, 1))
          (conv2): Conv2d(128, 128, kernel_size=(3, 3), stride=(1, 1), padding=(1, 1))
          (norm1): BatchNorm2d(128, eps=1e-05, momentum=0.1, affine=True, track_running_stats=True)
          (norm2): BatchNorm2d(128, eps=1e-05, momentum=0.1, affine=True, track_running_stats=True)
          (activation): ReLU()
          (skip_add): FloatFunctional(
            (activation_post_process): Identity()
          )
        )
        (out_conv): Sequential(
          (0): Conv2d(128, 128, kernel_size=(1, 1), stride=(1, 1), bias=False)
          (1): BatchNorm2d(128, eps=1e-05, momentum=0.1, affine=True, track_running_stats=True)
        )
        (skip_add): FloatFunctional(
          (activation_post_process): Identity()
        )
      )
    )
    (out_norm): Sequential(
      (0): Permute()
      (1): LayerNorm((128,), eps=1e-05, elementwise_affine=True)
      (2): Permute()
    )
  )
  (ele_head): EleReg2D(
    (reg_head): Sequential(
      (0): Conv2d(640, 320, kernel_size=(3, 3), stride=(1, 1), padding=(1, 1))
      (1): BatchNorm2d(320, eps=1e-05, momentum=0.1, affine=True, track_running_stats=True)
      (2): ReLU(inplace=True)
      (3): Conv2d(320, 160, kernel_size=(3, 3), stride=(1, 1), padding=(1, 1))
      (4): BatchNorm2d(160, eps=1e-05, momentum=0.1, affine=True, track_running_stats=True)
      (5): ReLU(inplace=True)
      (6): Conv2d(160, 1, kernel_size=(1, 1), stride=(1, 1))
    )
    (first_conv): Sequential(
      (0): Sequential(
        (0): Conv2d(5120, 640, kernel_size=(3, 3), stride=(1, 1), padding=(1, 1), bias=False)
        (1): BatchNorm2d(640, eps=1e-05, momentum=0.1, affine=True, track_running_stats=True)
      )
      (1): ReLU(inplace=True)
    )
  )
)Elevation(
  (feature_extraction): EfficientNetFeature(
    (l0): ConvNormActivation(
      (0): Conv2d(3, 56, kernel_size=(3, 3), stride=(2, 2), padding=(1, 1), bias=False)
      (1): BatchNorm2d(56, eps=1e-05, momentum=0.1, affine=True, track_running_stats=True)
      (2): SiLU(inplace=True)
    )
    (l1): Sequential(
      (0): MBConv(
        (block): Sequential(
          (0): ConvNormActivation(
            (0): Conv2d(56, 56, kernel_size=(3, 3), stride=(1, 1), padding=(1, 1), groups=56, bias=False)
            (1): BatchNorm2d(56, eps=1e-05, momentum=0.1, affine=True, track_running_stats=True)
            (2): SiLU(inplace=True)
          )
          (1): SqueezeExcitation(
            (avgpool): AdaptiveAvgPool2d(output_size=1)
            (fc1): Conv2d(56, 14, kernel_size=(1, 1), stride=(1, 1))
            (fc2): Conv2d(14, 56, kernel_size=(1, 1), stride=(1, 1))
            (activation): SiLU(inplace=True)
            (scale_activation): Sigmoid()
          )
          (2): ConvNormActivation(
            (0): Conv2d(56, 32, kernel_size=(1, 1), stride=(1, 1), bias=False)
            (1): BatchNorm2d(32, eps=1e-05, momentum=0.1, affine=True, track_running_stats=True)
          )
        )
        (stochastic_depth): StochasticDepth(p=0.0, mode=row)
      )
      (1): MBConv(
        (block): Sequential(
          (0): ConvNormActivation(
            (0): Conv2d(32, 32, kernel_size=(3, 3), stride=(1, 1), padding=(1, 1), groups=32, bias=False)
            (1): BatchNorm2d(32, eps=1e-05, momentum=0.1, affine=True, track_running_stats=True)
            (2): SiLU(inplace=True)
          )
          (1): SqueezeExcitation(
            (avgpool): AdaptiveAvgPool2d(output_size=1)
            (fc1): Conv2d(32, 8, kernel_size=(1, 1), stride=(1, 1))
            (fc2): Conv2d(8, 32, kernel_size=(1, 1), stride=(1, 1))
            (activation): SiLU(inplace=True)
            (scale_activation): Sigmoid()
          )
          (2): ConvNormActivation(
            (0): Conv2d(32, 32, kernel_size=(1, 1), stride=(1, 1), bias=False)
            (1): BatchNorm2d(32, eps=1e-05, momentum=0.1, affine=True, track_running_stats=True)
          )
        )
        (stochastic_depth): StochasticDepth(p=0.008695652173913044, mode=row)
      )
      (2): MBConv(
        (block): Sequential(
          (0): ConvNormActivation(
            (0): Conv2d(32, 32, kernel_size=(3, 3), stride=(1, 1), padding=(1, 1), groups=32, bias=False)
            (1): BatchNorm2d(32, eps=1e-05, momentum=0.1, affine=True, track_running_stats=True)
            (2): SiLU(inplace=True)
          )
          (1): SqueezeExcitation(
            (avgpool): AdaptiveAvgPool2d(output_size=1)
            (fc1): Conv2d(32, 8, kernel_size=(1, 1), stride=(1, 1))
            (fc2): Conv2d(8, 32, kernel_size=(1, 1), stride=(1, 1))
            (activation): SiLU(inplace=True)
            (scale_activation): Sigmoid()
          )
          (2): ConvNormActivation(
            (0): Conv2d(32, 32, kernel_size=(1, 1), stride=(1, 1), bias=False)
            (1): BatchNorm2d(32, eps=1e-05, momentum=0.1, affine=True, track_running_stats=True)
          )
        )
        (stochastic_depth): StochasticDepth(p=0.017391304347826087, mode=row)
      )
    )
    (l2): Sequential(
      (0): MBConv(
        (block): Sequential(
          (0): ConvNormActivation(
            (0): Conv2d(32, 192, kernel_size=(1, 1), stride=(1, 1), bias=False)
            (1): BatchNorm2d(192, eps=1e-05, momentum=0.1, affine=True, track_running_stats=True)
            (2): SiLU(inplace=True)
          )
          (1): ConvNormActivation(
            (0): Conv2d(192, 192, kernel_size=(3, 3), stride=(2, 2), padding=(1, 1), groups=192, bias=False)
            (1): BatchNorm2d(192, eps=1e-05, momentum=0.1, affine=True, track_running_stats=True)
            (2): SiLU(inplace=True)
          )
          (2): SqueezeExcitation(
            (avgpool): AdaptiveAvgPool2d(output_size=1)
            (fc1): Conv2d(192, 8, kernel_size=(1, 1), stride=(1, 1))
            (fc2): Conv2d(8, 192, kernel_size=(1, 1), stride=(1, 1))
            (activation): SiLU(inplace=True)
            (scale_activation): Sigmoid()
          )
          (3): ConvNormActivation(
            (0): Conv2d(192, 40, kernel_size=(1, 1), stride=(1, 1), bias=False)
            (1): BatchNorm2d(40, eps=1e-05, momentum=0.1, affine=True, track_running_stats=True)
          )
        )
        (stochastic_depth): StochasticDepth(p=0.026086956521739136, mode=row)
      )
      (1): MBConv(
        (block): Sequential(
          (0): ConvNormActivation(
            (0): Conv2d(40, 240, kernel_size=(1, 1), stride=(1, 1), bias=False)
            (1): BatchNorm2d(240, eps=1e-05, momentum=0.1, affine=True, track_running_stats=True)
            (2): SiLU(inplace=True)
          )
          (1): ConvNormActivation(
            (0): Conv2d(240, 240, kernel_size=(3, 3), stride=(1, 1), padding=(1, 1), groups=240, bias=False)
            (1): BatchNorm2d(240, eps=1e-05, momentum=0.1, affine=True, track_running_stats=True)
            (2): SiLU(inplace=True)
          )
          (2): SqueezeExcitation(
            (avgpool): AdaptiveAvgPool2d(output_size=1)
            (fc1): Conv2d(240, 10, kernel_size=(1, 1), stride=(1, 1))
            (fc2): Conv2d(10, 240, kernel_size=(1, 1), stride=(1, 1))
            (activation): SiLU(inplace=True)
            (scale_activation): Sigmoid()
          )
          (3): ConvNormActivation(
            (0): Conv2d(240, 40, kernel_size=(1, 1), stride=(1, 1), bias=False)
            (1): BatchNorm2d(40, eps=1e-05, momentum=0.1, affine=True, track_running_stats=True)
          )
        )
        (stochastic_depth): StochasticDepth(p=0.034782608695652174, mode=row)
      )
      (2): MBConv(
        (block): Sequential(
          (0): ConvNormActivation(
            (0): Conv2d(40, 240, kernel_size=(1, 1), stride=(1, 1), bias=False)
            (1): BatchNorm2d(240, eps=1e-05, momentum=0.1, affine=True, track_running_stats=True)
            (2): SiLU(inplace=True)
          )
          (1): ConvNormActivation(
            (0): Conv2d(240, 240, kernel_size=(3, 3), stride=(1, 1), padding=(1, 1), groups=240, bias=False)
            (1): BatchNorm2d(240, eps=1e-05, momentum=0.1, affine=True, track_running_stats=True)
            (2): SiLU(inplace=True)
          )
          (2): SqueezeExcitation(
            (avgpool): AdaptiveAvgPool2d(output_size=1)
            (fc1): Conv2d(240, 10, kernel_size=(1, 1), stride=(1, 1))
            (fc2): Conv2d(10, 240, kernel_size=(1, 1), stride=(1, 1))
            (activation): SiLU(inplace=True)
            (scale_activation): Sigmoid()
          )
          (3): ConvNormActivation(
            (0): Conv2d(240, 40, kernel_size=(1, 1), stride=(1, 1), bias=False)
            (1): BatchNorm2d(40, eps=1e-05, momentum=0.1, affine=True, track_running_stats=True)
          )
        )
        (stochastic_depth): StochasticDepth(p=0.043478260869565216, mode=row)
      )
      (3): MBConv(
        (block): Sequential(
          (0): ConvNormActivation(
            (0): Conv2d(40, 240, kernel_size=(1, 1), stride=(1, 1), bias=False)
            (1): BatchNorm2d(240, eps=1e-05, momentum=0.1, affine=True, track_running_stats=True)
            (2): SiLU(inplace=True)
          )
          (1): ConvNormActivation(
            (0): Conv2d(240, 240, kernel_size=(3, 3), stride=(1, 1), padding=(1, 1), groups=240, bias=False)
            (1): BatchNorm2d(240, eps=1e-05, momentum=0.1, affine=True, track_running_stats=True)
            (2): SiLU(inplace=True)
          )
          (2): SqueezeExcitation(
            (avgpool): AdaptiveAvgPool2d(output_size=1)
            (fc1): Conv2d(240, 10, kernel_size=(1, 1), stride=(1, 1))
            (fc2): Conv2d(10, 240, kernel_size=(1, 1), stride=(1, 1))
            (activation): SiLU(inplace=True)
            (scale_activation): Sigmoid()
          )
          (3): ConvNormActivation(
            (0): Conv2d(240, 40, kernel_size=(1, 1), stride=(1, 1), bias=False)
            (1): BatchNorm2d(40, eps=1e-05, momentum=0.1, affine=True, track_running_stats=True)
          )
        )
        (stochastic_depth): StochasticDepth(p=0.05217391304347827, mode=row)
      )
      (4): MBConv(
        (block): Sequential(
          (0): ConvNormActivation(
            (0): Conv2d(40, 240, kernel_size=(1, 1), stride=(1, 1), bias=False)
            (1): BatchNorm2d(240, eps=1e-05, momentum=0.1, affine=True, track_running_stats=True)
            (2): SiLU(inplace=True)
          )
          (1): ConvNormActivation(
            (0): Conv2d(240, 240, kernel_size=(3, 3), stride=(1, 1), padding=(1, 1), groups=240, bias=False)
            (1): BatchNorm2d(240, eps=1e-05, momentum=0.1, affine=True, track_running_stats=True)
            (2): SiLU(inplace=True)
          )
          (2): SqueezeExcitation(
            (avgpool): AdaptiveAvgPool2d(output_size=1)
            (fc1): Conv2d(240, 10, kernel_size=(1, 1), stride=(1, 1))
            (fc2): Conv2d(10, 240, kernel_size=(1, 1), stride=(1, 1))
            (activation): SiLU(inplace=True)
            (scale_activation): Sigmoid()
          )
          (3): ConvNormActivation(
            (0): Conv2d(240, 40, kernel_size=(1, 1), stride=(1, 1), bias=False)
            (1): BatchNorm2d(40, eps=1e-05, momentum=0.1, affine=True, track_running_stats=True)
          )
        )
        (stochastic_depth): StochasticDepth(p=0.06086956521739131, mode=row)
      )
      (5): MBConv(
        (block): Sequential(
          (0): ConvNormActivation(
            (0): Conv2d(40, 240, kernel_size=(1, 1), stride=(1, 1), bias=False)
            (1): BatchNorm2d(240, eps=1e-05, momentum=0.1, affine=True, track_running_stats=True)
            (2): SiLU(inplace=True)
          )
          (1): ConvNormActivation(
            (0): Conv2d(240, 240, kernel_size=(3, 3), stride=(1, 1), padding=(1, 1), groups=240, bias=False)
            (1): BatchNorm2d(240, eps=1e-05, momentum=0.1, affine=True, track_running_stats=True)
            (2): SiLU(inplace=True)
          )
          (2): SqueezeExcitation(
            (avgpool): AdaptiveAvgPool2d(output_size=1)
            (fc1): Conv2d(240, 10, kernel_size=(1, 1), stride=(1, 1))
            (fc2): Conv2d(10, 240, kernel_size=(1, 1), stride=(1, 1))
            (activation): SiLU(inplace=True)
            (scale_activation): Sigmoid()
          )
          (3): ConvNormActivation(
            (0): Conv2d(240, 40, kernel_size=(1, 1), stride=(1, 1), bias=False)
            (1): BatchNorm2d(40, eps=1e-05, momentum=0.1, affine=True, track_running_stats=True)
          )
        )
        (stochastic_depth): StochasticDepth(p=0.06956521739130435, mode=row)
      )
    )
    (l3): Sequential(
      (0): MBConv(
        (block): Sequential(
          (0): ConvNormActivation(
            (0): Conv2d(40, 240, kernel_size=(1, 1), stride=(1, 1), bias=False)
            (1): BatchNorm2d(240, eps=1e-05, momentum=0.1, affine=True, track_running_stats=True)
            (2): SiLU(inplace=True)
          )
          (1): ConvNormActivation(
            (0): Conv2d(240, 240, kernel_size=(5, 5), stride=(2, 2), padding=(2, 2), groups=240, bias=False)
            (1): BatchNorm2d(240, eps=1e-05, momentum=0.1, affine=True, track_running_stats=True)
            (2): SiLU(inplace=True)
          )
          (2): SqueezeExcitation(
            (avgpool): AdaptiveAvgPool2d(output_size=1)
            (fc1): Conv2d(240, 10, kernel_size=(1, 1), stride=(1, 1))
            (fc2): Conv2d(10, 240, kernel_size=(1, 1), stride=(1, 1))
            (activation): SiLU(inplace=True)
            (scale_activation): Sigmoid()
          )
          (3): ConvNormActivation(
            (0): Conv2d(240, 72, kernel_size=(1, 1), stride=(1, 1), bias=False)
            (1): BatchNorm2d(72, eps=1e-05, momentum=0.1, affine=True, track_running_stats=True)
          )
        )
        (stochastic_depth): StochasticDepth(p=0.0782608695652174, mode=row)
      )
      (1): MBConv(
        (block): Sequential(
          (0): ConvNormActivation(
            (0): Conv2d(72, 432, kernel_size=(1, 1), stride=(1, 1), bias=False)
            (1): BatchNorm2d(432, eps=1e-05, momentum=0.1, affine=True, track_running_stats=True)
            (2): SiLU(inplace=True)
          )
          (1): ConvNormActivation(
            (0): Conv2d(432, 432, kernel_size=(5, 5), stride=(1, 1), padding=(2, 2), groups=432, bias=False)
            (1): BatchNorm2d(432, eps=1e-05, momentum=0.1, affine=True, track_running_stats=True)
            (2): SiLU(inplace=True)
          )
          (2): SqueezeExcitation(
            (avgpool): AdaptiveAvgPool2d(output_size=1)
            (fc1): Conv2d(432, 18, kernel_size=(1, 1), stride=(1, 1))
            (fc2): Conv2d(18, 432, kernel_size=(1, 1), stride=(1, 1))
            (activation): SiLU(inplace=True)
            (scale_activation): Sigmoid()
          )
          (3): ConvNormActivation(
            (0): Conv2d(432, 72, kernel_size=(1, 1), stride=(1, 1), bias=False)
            (1): BatchNorm2d(72, eps=1e-05, momentum=0.1, affine=True, track_running_stats=True)
          )
        )
        (stochastic_depth): StochasticDepth(p=0.08695652173913043, mode=row)
      )
      (2): MBConv(
        (block): Sequential(
          (0): ConvNormActivation(
            (0): Conv2d(72, 432, kernel_size=(1, 1), stride=(1, 1), bias=False)
            (1): BatchNorm2d(432, eps=1e-05, momentum=0.1, affine=True, track_running_stats=True)
            (2): SiLU(inplace=True)
          )
          (1): ConvNormActivation(
            (0): Conv2d(432, 432, kernel_size=(5, 5), stride=(1, 1), padding=(2, 2), groups=432, bias=False)
            (1): BatchNorm2d(432, eps=1e-05, momentum=0.1, affine=True, track_running_stats=True)
            (2): SiLU(inplace=True)
          )
          (2): SqueezeExcitation(
            (avgpool): AdaptiveAvgPool2d(output_size=1)
            (fc1): Conv2d(432, 18, kernel_size=(1, 1), stride=(1, 1))
            (fc2): Conv2d(18, 432, kernel_size=(1, 1), stride=(1, 1))
            (activation): SiLU(inplace=True)
            (scale_activation): Sigmoid()
          )
          (3): ConvNormActivation(
            (0): Conv2d(432, 72, kernel_size=(1, 1), stride=(1, 1), bias=False)
            (1): BatchNorm2d(72, eps=1e-05, momentum=0.1, affine=True, track_running_stats=True)
          )
        )
        (stochastic_depth): StochasticDepth(p=0.09565217391304348, mode=row)
      )
      (3): MBConv(
        (block): Sequential(
          (0): ConvNormActivation(
            (0): Conv2d(72, 432, kernel_size=(1, 1), stride=(1, 1), bias=False)
            (1): BatchNorm2d(432, eps=1e-05, momentum=0.1, affine=True, track_running_stats=True)
            (2): SiLU(inplace=True)
          )
          (1): ConvNormActivation(
            (0): Conv2d(432, 432, kernel_size=(5, 5), stride=(1, 1), padding=(2, 2), groups=432, bias=False)
            (1): BatchNorm2d(432, eps=1e-05, momentum=0.1, affine=True, track_running_stats=True)
            (2): SiLU(inplace=True)
          )
          (2): SqueezeExcitation(
            (avgpool): AdaptiveAvgPool2d(output_size=1)
            (fc1): Conv2d(432, 18, kernel_size=(1, 1), stride=(1, 1))
            (fc2): Conv2d(18, 432, kernel_size=(1, 1), stride=(1, 1))
            (activation): SiLU(inplace=True)
            (scale_activation): Sigmoid()
          )
          (3): ConvNormActivation(
            (0): Conv2d(432, 72, kernel_size=(1, 1), stride=(1, 1), bias=False)
            (1): BatchNorm2d(72, eps=1e-05, momentum=0.1, affine=True, track_running_stats=True)
          )
        )
        (stochastic_depth): StochasticDepth(p=0.10434782608695654, mode=row)
      )
      (4): MBConv(
        (block): Sequential(
          (0): ConvNormActivation(
            (0): Conv2d(72, 432, kernel_size=(1, 1), stride=(1, 1), bias=False)
            (1): BatchNorm2d(432, eps=1e-05, momentum=0.1, affine=True, track_running_stats=True)
            (2): SiLU(inplace=True)
          )
          (1): ConvNormActivation(
            (0): Conv2d(432, 432, kernel_size=(5, 5), stride=(1, 1), padding=(2, 2), groups=432, bias=False)
            (1): BatchNorm2d(432, eps=1e-05, momentum=0.1, affine=True, track_running_stats=True)
            (2): SiLU(inplace=True)
          )
          (2): SqueezeExcitation(
            (avgpool): AdaptiveAvgPool2d(output_size=1)
            (fc1): Conv2d(432, 18, kernel_size=(1, 1), stride=(1, 1))
            (fc2): Conv2d(18, 432, kernel_size=(1, 1), stride=(1, 1))
            (activation): SiLU(inplace=True)
            (scale_activation): Sigmoid()
          )
          (3): ConvNormActivation(
            (0): Conv2d(432, 72, kernel_size=(1, 1), stride=(1, 1), bias=False)
            (1): BatchNorm2d(72, eps=1e-05, momentum=0.1, affine=True, track_running_stats=True)
          )
        )
        (stochastic_depth): StochasticDepth(p=0.11304347826086956, mode=row)
      )
      (5): MBConv(
        (block): Sequential(
          (0): ConvNormActivation(
            (0): Conv2d(72, 432, kernel_size=(1, 1), stride=(1, 1), bias=False)
            (1): BatchNorm2d(432, eps=1e-05, momentum=0.1, affine=True, track_running_stats=True)
            (2): SiLU(inplace=True)
          )
          (1): ConvNormActivation(
            (0): Conv2d(432, 432, kernel_size=(5, 5), stride=(1, 1), padding=(2, 2), groups=432, bias=False)
            (1): BatchNorm2d(432, eps=1e-05, momentum=0.1, affine=True, track_running_stats=True)
            (2): SiLU(inplace=True)
          )
          (2): SqueezeExcitation(
            (avgpool): AdaptiveAvgPool2d(output_size=1)
            (fc1): Conv2d(432, 18, kernel_size=(1, 1), stride=(1, 1))
            (fc2): Conv2d(18, 432, kernel_size=(1, 1), stride=(1, 1))
            (activation): SiLU(inplace=True)
            (scale_activation): Sigmoid()
          )
          (3): ConvNormActivation(
            (0): Conv2d(432, 72, kernel_size=(1, 1), stride=(1, 1), bias=False)
            (1): BatchNorm2d(72, eps=1e-05, momentum=0.1, affine=True, track_running_stats=True)
          )
        )
        (stochastic_depth): StochasticDepth(p=0.12173913043478261, mode=row)
      )
    )
    (l4): Sequential(
      (0): MBConv(
        (block): Sequential(
          (0): ConvNormActivation(
            (0): Conv2d(72, 432, kernel_size=(1, 1), stride=(1, 1), bias=False)
            (1): BatchNorm2d(432, eps=1e-05, momentum=0.1, affine=True, track_running_stats=True)
            (2): SiLU(inplace=True)
          )
          (1): ConvNormActivation(
            (0): Conv2d(432, 432, kernel_size=(3, 3), stride=(2, 2), padding=(1, 1), groups=432, bias=False)
            (1): BatchNorm2d(432, eps=1e-05, momentum=0.1, affine=True, track_running_stats=True)
            (2): SiLU(inplace=True)
          )
          (2): SqueezeExcitation(
            (avgpool): AdaptiveAvgPool2d(output_size=1)
            (fc1): Conv2d(432, 18, kernel_size=(1, 1), stride=(1, 1))
            (fc2): Conv2d(18, 432, kernel_size=(1, 1), stride=(1, 1))
            (activation): SiLU(inplace=True)
            (scale_activation): Sigmoid()
          )
          (3): ConvNormActivation(
            (0): Conv2d(432, 144, kernel_size=(1, 1), stride=(1, 1), bias=False)
            (1): BatchNorm2d(144, eps=1e-05, momentum=0.1, affine=True, track_running_stats=True)
          )
        )
        (stochastic_depth): StochasticDepth(p=0.13043478260869565, mode=row)
      )
      (1): MBConv(
        (block): Sequential(
          (0): ConvNormActivation(
            (0): Conv2d(144, 864, kernel_size=(1, 1), stride=(1, 1), bias=False)
            (1): BatchNorm2d(864, eps=1e-05, momentum=0.1, affine=True, track_running_stats=True)
            (2): SiLU(inplace=True)
          )
          (1): ConvNormActivation(
            (0): Conv2d(864, 864, kernel_size=(3, 3), stride=(1, 1), padding=(1, 1), groups=864, bias=False)
            (1): BatchNorm2d(864, eps=1e-05, momentum=0.1, affine=True, track_running_stats=True)
            (2): SiLU(inplace=True)
          )
          (2): SqueezeExcitation(
            (avgpool): AdaptiveAvgPool2d(output_size=1)
            (fc1): Conv2d(864, 36, kernel_size=(1, 1), stride=(1, 1))
            (fc2): Conv2d(36, 864, kernel_size=(1, 1), stride=(1, 1))
            (activation): SiLU(inplace=True)
            (scale_activation): Sigmoid()
          )
          (3): ConvNormActivation(
            (0): Conv2d(864, 144, kernel_size=(1, 1), stride=(1, 1), bias=False)
            (1): BatchNorm2d(144, eps=1e-05, momentum=0.1, affine=True, track_running_stats=True)
          )
        )
        (stochastic_depth): StochasticDepth(p=0.1391304347826087, mode=row)
      )
      (2): MBConv(
        (block): Sequential(
          (0): ConvNormActivation(
            (0): Conv2d(144, 864, kernel_size=(1, 1), stride=(1, 1), bias=False)
            (1): BatchNorm2d(864, eps=1e-05, momentum=0.1, affine=True, track_running_stats=True)
            (2): SiLU(inplace=True)
          )
          (1): ConvNormActivation(
            (0): Conv2d(864, 864, kernel_size=(3, 3), stride=(1, 1), padding=(1, 1), groups=864, bias=False)
            (1): BatchNorm2d(864, eps=1e-05, momentum=0.1, affine=True, track_running_stats=True)
            (2): SiLU(inplace=True)
          )
          (2): SqueezeExcitation(
            (avgpool): AdaptiveAvgPool2d(output_size=1)
            (fc1): Conv2d(864, 36, kernel_size=(1, 1), stride=(1, 1))
            (fc2): Conv2d(36, 864, kernel_size=(1, 1), stride=(1, 1))
            (activation): SiLU(inplace=True)
            (scale_activation): Sigmoid()
          )
          (3): ConvNormActivation(
            (0): Conv2d(864, 144, kernel_size=(1, 1), stride=(1, 1), bias=False)
            (1): BatchNorm2d(144, eps=1e-05, momentum=0.1, affine=True, track_running_stats=True)
          )
        )
        (stochastic_depth): StochasticDepth(p=0.14782608695652175, mode=row)
      )
      (3): MBConv(
        (block): Sequential(
          (0): ConvNormActivation(
            (0): Conv2d(144, 864, kernel_size=(1, 1), stride=(1, 1), bias=False)
            (1): BatchNorm2d(864, eps=1e-05, momentum=0.1, affine=True, track_running_stats=True)
            (2): SiLU(inplace=True)
          )
          (1): ConvNormActivation(
            (0): Conv2d(864, 864, kernel_size=(3, 3), stride=(1, 1), padding=(1, 1), groups=864, bias=False)
            (1): BatchNorm2d(864, eps=1e-05, momentum=0.1, affine=True, track_running_stats=True)
            (2): SiLU(inplace=True)
          )
          (2): SqueezeExcitation(
            (avgpool): AdaptiveAvgPool2d(output_size=1)
            (fc1): Conv2d(864, 36, kernel_size=(1, 1), stride=(1, 1))
            (fc2): Conv2d(36, 864, kernel_size=(1, 1), stride=(1, 1))
            (activation): SiLU(inplace=True)
            (scale_activation): Sigmoid()
          )
          (3): ConvNormActivation(
            (0): Conv2d(864, 144, kernel_size=(1, 1), stride=(1, 1), bias=False)
            (1): BatchNorm2d(144, eps=1e-05, momentum=0.1, affine=True, track_running_stats=True)
          )
        )
        (stochastic_depth): StochasticDepth(p=0.1565217391304348, mode=row)
      )
      (4): MBConv(
        (block): Sequential(
          (0): ConvNormActivation(
            (0): Conv2d(144, 864, kernel_size=(1, 1), stride=(1, 1), bias=False)
            (1): BatchNorm2d(864, eps=1e-05, momentum=0.1, affine=True, track_running_stats=True)
            (2): SiLU(inplace=True)
          )
          (1): ConvNormActivation(
            (0): Conv2d(864, 864, kernel_size=(3, 3), stride=(1, 1), padding=(1, 1), groups=864, bias=False)
            (1): BatchNorm2d(864, eps=1e-05, momentum=0.1, affine=True, track_running_stats=True)
            (2): SiLU(inplace=True)
          )
          (2): SqueezeExcitation(
            (avgpool): AdaptiveAvgPool2d(output_size=1)
            (fc1): Conv2d(864, 36, kernel_size=(1, 1), stride=(1, 1))
            (fc2): Conv2d(36, 864, kernel_size=(1, 1), stride=(1, 1))
            (activation): SiLU(inplace=True)
            (scale_activation): Sigmoid()
          )
          (3): ConvNormActivation(
            (0): Conv2d(864, 144, kernel_size=(1, 1), stride=(1, 1), bias=False)
            (1): BatchNorm2d(144, eps=1e-05, momentum=0.1, affine=True, track_running_stats=True)
          )
        )
        (stochastic_depth): StochasticDepth(p=0.16521739130434784, mode=row)
      )
      (5): MBConv(
        (block): Sequential(
          (0): ConvNormActivation(
            (0): Conv2d(144, 864, kernel_size=(1, 1), stride=(1, 1), bias=False)
            (1): BatchNorm2d(864, eps=1e-05, momentum=0.1, affine=True, track_running_stats=True)
            (2): SiLU(inplace=True)
          )
          (1): ConvNormActivation(
            (0): Conv2d(864, 864, kernel_size=(3, 3), stride=(1, 1), padding=(1, 1), groups=864, bias=False)
            (1): BatchNorm2d(864, eps=1e-05, momentum=0.1, affine=True, track_running_stats=True)
            (2): SiLU(inplace=True)
          )
          (2): SqueezeExcitation(
            (avgpool): AdaptiveAvgPool2d(output_size=1)
            (fc1): Conv2d(864, 36, kernel_size=(1, 1), stride=(1, 1))
            (fc2): Conv2d(36, 864, kernel_size=(1, 1), stride=(1, 1))
            (activation): SiLU(inplace=True)
            (scale_activation): Sigmoid()
          )
          (3): ConvNormActivation(
            (0): Conv2d(864, 144, kernel_size=(1, 1), stride=(1, 1), bias=False)
            (1): BatchNorm2d(144, eps=1e-05, momentum=0.1, affine=True, track_running_stats=True)
          )
        )
        (stochastic_depth): StochasticDepth(p=0.17391304347826086, mode=row)
      )
      (6): MBConv(
        (block): Sequential(
          (0): ConvNormActivation(
            (0): Conv2d(144, 864, kernel_size=(1, 1), stride=(1, 1), bias=False)
            (1): BatchNorm2d(864, eps=1e-05, momentum=0.1, affine=True, track_running_stats=True)
            (2): SiLU(inplace=True)
          )
          (1): ConvNormActivation(
            (0): Conv2d(864, 864, kernel_size=(3, 3), stride=(1, 1), padding=(1, 1), groups=864, bias=False)
            (1): BatchNorm2d(864, eps=1e-05, momentum=0.1, affine=True, track_running_stats=True)
            (2): SiLU(inplace=True)
          )
          (2): SqueezeExcitation(
            (avgpool): AdaptiveAvgPool2d(output_size=1)
            (fc1): Conv2d(864, 36, kernel_size=(1, 1), stride=(1, 1))
            (fc2): Conv2d(36, 864, kernel_size=(1, 1), stride=(1, 1))
            (activation): SiLU(inplace=True)
            (scale_activation): Sigmoid()
          )
          (3): ConvNormActivation(
            (0): Conv2d(864, 144, kernel_size=(1, 1), stride=(1, 1), bias=False)
            (1): BatchNorm2d(144, eps=1e-05, momentum=0.1, affine=True, track_running_stats=True)
          )
        )
        (stochastic_depth): StochasticDepth(p=0.1826086956521739, mode=row)
      )
      (7): MBConv(
        (block): Sequential(
          (0): ConvNormActivation(
            (0): Conv2d(144, 864, kernel_size=(1, 1), stride=(1, 1), bias=False)
            (1): BatchNorm2d(864, eps=1e-05, momentum=0.1, affine=True, track_running_stats=True)
            (2): SiLU(inplace=True)
          )
          (1): ConvNormActivation(
            (0): Conv2d(864, 864, kernel_size=(3, 3), stride=(1, 1), padding=(1, 1), groups=864, bias=False)
            (1): BatchNorm2d(864, eps=1e-05, momentum=0.1, affine=True, track_running_stats=True)
            (2): SiLU(inplace=True)
          )
          (2): SqueezeExcitation(
            (avgpool): AdaptiveAvgPool2d(output_size=1)
            (fc1): Conv2d(864, 36, kernel_size=(1, 1), stride=(1, 1))
            (fc2): Conv2d(36, 864, kernel_size=(1, 1), stride=(1, 1))
            (activation): SiLU(inplace=True)
            (scale_activation): Sigmoid()
          )
          (3): ConvNormActivation(
            (0): Conv2d(864, 144, kernel_size=(1, 1), stride=(1, 1), bias=False)
            (1): BatchNorm2d(144, eps=1e-05, momentum=0.1, affine=True, track_running_stats=True)
          )
        )
        (stochastic_depth): StochasticDepth(p=0.19130434782608696, mode=row)
      )
    )
    (final_conv): Sequential(
      (0): Sequential(
        (0): Conv2d(256, 128, kernel_size=(5, 5), stride=(1, 1), padding=(2, 2), bias=False)
        (1): BatchNorm2d(128, eps=1e-05, momentum=0.1, affine=True, track_running_stats=True)
      )
      (1): ReLU(inplace=True)
      (2): Sequential(
        (0): Conv2d(128, 64, kernel_size=(3, 3), stride=(1, 1), padding=(1, 1), bias=False)
        (1): BatchNorm2d(64, eps=1e-05, momentum=0.1, affine=True, track_running_stats=True)
      )
      (3): ReLU(inplace=True)
      (4): Conv2d(64, 64, kernel_size=(1, 1), stride=(1, 1), bias=False)
    )
  )
  (ele_head): EleCla2D(
    (first_conv): Sequential(
      (0): Sequential(
        (0): Conv2d(2560, 320, kernel_size=(5, 5), stride=(1, 1), padding=(2, 2), bias=False)
        (1): BatchNorm2d(320, eps=1e-05, momentum=0.1, affine=True, track_running_stats=True)
      )
      (1): ReLU(inplace=True)
    )
    (effnet_reg): EfficientNetCla(
      (features): Sequential(
        (0): Sequential(
          (0): MBConv(
            (block): Sequential(
              (0): ConvNormActivation(
                (0): Conv2d(320, 320, kernel_size=(3, 3), stride=(1, 1), padding=(1, 1), groups=320, bias=False)
                (1): BatchNorm2d(320, eps=1e-05, momentum=0.1, affine=True, track_running_stats=True)
                (2): SiLU(inplace=True)
              )
              (1): SqueezeExcitation(
                (avgpool): AdaptiveAvgPool2d(output_size=1)
                (fc1): Conv2d(320, 80, kernel_size=(1, 1), stride=(1, 1))
                (fc2): Conv2d(80, 320, kernel_size=(1, 1), stride=(1, 1))
                (activation): SiLU(inplace=True)
                (scale_activation): Sigmoid()
              )
              (2): ConvNormActivation(
                (0): Conv2d(320, 320, kernel_size=(1, 1), stride=(1, 1), bias=False)
                (1): BatchNorm2d(320, eps=1e-05, momentum=0.1, affine=True, track_running_stats=True)
              )
            )
            (stochastic_depth): StochasticDepth(p=0.0, mode=row)
          )
        )
        (1): Sequential(
          (0): MBConv(
            (block): Sequential(
              (0): ConvNormActivation(
                (0): Conv2d(320, 1920, kernel_size=(1, 1), stride=(1, 1), bias=False)
                (1): BatchNorm2d(1920, eps=1e-05, momentum=0.1, affine=True, track_running_stats=True)
                (2): SiLU(inplace=True)
              )
              (1): ConvNormActivation(
                (0): Conv2d(1920, 1920, kernel_size=(3, 3), stride=(1, 1), padding=(1, 1), groups=1920, bias=False)
                (1): BatchNorm2d(1920, eps=1e-05, momentum=0.1, affine=True, track_running_stats=True)
                (2): SiLU(inplace=True)
              )
              (2): SqueezeExcitation(
                (avgpool): AdaptiveAvgPool2d(output_size=1)
                (fc1): Conv2d(1920, 80, kernel_size=(1, 1), stride=(1, 1))
                (fc2): Conv2d(80, 1920, kernel_size=(1, 1), stride=(1, 1))
                (activation): SiLU(inplace=True)
                (scale_activation): Sigmoid()
              )
              (3): ConvNormActivation(
                (0): Conv2d(1920, 128, kernel_size=(1, 1), stride=(1, 1), bias=False)
                (1): BatchNorm2d(128, eps=1e-05, momentum=0.1, affine=True, track_running_stats=True)
              )
            )
            (stochastic_depth): StochasticDepth(p=0.028571428571428574, mode=row)
          )
          (1): MBConv(
            (block): Sequential(
              (0): ConvNormActivation(
                (0): Conv2d(128, 768, kernel_size=(1, 1), stride=(1, 1), bias=False)
                (1): BatchNorm2d(768, eps=1e-05, momentum=0.1, affine=True, track_running_stats=True)
                (2): SiLU(inplace=True)
              )
              (1): ConvNormActivation(
                (0): Conv2d(768, 768, kernel_size=(3, 3), stride=(1, 1), padding=(1, 1), groups=768, bias=False)
                (1): BatchNorm2d(768, eps=1e-05, momentum=0.1, affine=True, track_running_stats=True)
                (2): SiLU(inplace=True)
              )
              (2): SqueezeExcitation(
                (avgpool): AdaptiveAvgPool2d(output_size=1)
                (fc1): Conv2d(768, 32, kernel_size=(1, 1), stride=(1, 1))
                (fc2): Conv2d(32, 768, kernel_size=(1, 1), stride=(1, 1))
                (activation): SiLU(inplace=True)
                (scale_activation): Sigmoid()
              )
              (3): ConvNormActivation(
                (0): Conv2d(768, 128, kernel_size=(1, 1), stride=(1, 1), bias=False)
                (1): BatchNorm2d(128, eps=1e-05, momentum=0.1, affine=True, track_running_stats=True)
              )
            )
            (stochastic_depth): StochasticDepth(p=0.05714285714285715, mode=row)
          )
        )
        (2): Sequential(
          (0): MBConv(
            (block): Sequential(
              (0): ConvNormActivation(
                (0): Conv2d(128, 768, kernel_size=(1, 1), stride=(1, 1), bias=False)
                (1): BatchNorm2d(768, eps=1e-05, momentum=0.1, affine=True, track_running_stats=True)
                (2): SiLU(inplace=True)
              )
              (1): ConvNormActivation(
                (0): Conv2d(768, 768, kernel_size=(5, 5), stride=(1, 1), padding=(2, 2), groups=768, bias=False)
                (1): BatchNorm2d(768, eps=1e-05, momentum=0.1, affine=True, track_running_stats=True)
                (2): SiLU(inplace=True)
              )
              (2): SqueezeExcitation(
                (avgpool): AdaptiveAvgPool2d(output_size=1)
                (fc1): Conv2d(768, 32, kernel_size=(1, 1), stride=(1, 1))
                (fc2): Conv2d(32, 768, kernel_size=(1, 1), stride=(1, 1))
                (activation): SiLU(inplace=True)
                (scale_activation): Sigmoid()
              )
              (3): ConvNormActivation(
                (0): Conv2d(768, 80, kernel_size=(1, 1), stride=(1, 1), bias=False)
                (1): BatchNorm2d(80, eps=1e-05, momentum=0.1, affine=True, track_running_stats=True)
              )
            )
            (stochastic_depth): StochasticDepth(p=0.08571428571428573, mode=row)
          )
          (1): MBConv(
            (block): Sequential(
              (0): ConvNormActivation(
                (0): Conv2d(80, 480, kernel_size=(1, 1), stride=(1, 1), bias=False)
                (1): BatchNorm2d(480, eps=1e-05, momentum=0.1, affine=True, track_running_stats=True)
                (2): SiLU(inplace=True)
              )
              (1): ConvNormActivation(
                (0): Conv2d(480, 480, kernel_size=(5, 5), stride=(1, 1), padding=(2, 2), groups=480, bias=False)
                (1): BatchNorm2d(480, eps=1e-05, momentum=0.1, affine=True, track_running_stats=True)
                (2): SiLU(inplace=True)
              )
              (2): SqueezeExcitation(
                (avgpool): AdaptiveAvgPool2d(output_size=1)
                (fc1): Conv2d(480, 20, kernel_size=(1, 1), stride=(1, 1))
                (fc2): Conv2d(20, 480, kernel_size=(1, 1), stride=(1, 1))
                (activation): SiLU(inplace=True)
                (scale_activation): Sigmoid()
              )
              (3): ConvNormActivation(
                (0): Conv2d(480, 80, kernel_size=(1, 1), stride=(1, 1), bias=False)
                (1): BatchNorm2d(80, eps=1e-05, momentum=0.1, affine=True, track_running_stats=True)
              )
            )
            (stochastic_depth): StochasticDepth(p=0.1142857142857143, mode=row)
          )
        )
        (3): Sequential(
          (0): MBConv(
            (block): Sequential(
              (0): ConvNormActivation(
                (0): Conv2d(80, 480, kernel_size=(1, 1), stride=(1, 1), bias=False)
                (1): BatchNorm2d(480, eps=1e-05, momentum=0.1, affine=True, track_running_stats=True)
                (2): SiLU(inplace=True)
              )
              (1): ConvNormActivation(
                (0): Conv2d(480, 480, kernel_size=(3, 3), stride=(1, 1), padding=(1, 1), groups=480, bias=False)
                (1): BatchNorm2d(480, eps=1e-05, momentum=0.1, affine=True, track_running_stats=True)
                (2): SiLU(inplace=True)
              )
              (2): SqueezeExcitation(
                (avgpool): AdaptiveAvgPool2d(output_size=1)
                (fc1): Conv2d(480, 20, kernel_size=(1, 1), stride=(1, 1))
                (fc2): Conv2d(20, 480, kernel_size=(1, 1), stride=(1, 1))
                (activation): SiLU(inplace=True)
                (scale_activation): Sigmoid()
              )
              (3): ConvNormActivation(
                (0): Conv2d(480, 80, kernel_size=(1, 1), stride=(1, 1), bias=False)
                (1): BatchNorm2d(80, eps=1e-05, momentum=0.1, affine=True, track_running_stats=True)
              )
            )
            (stochastic_depth): StochasticDepth(p=0.14285714285714285, mode=row)
          )
          (1): MBConv(
            (block): Sequential(
              (0): ConvNormActivation(
                (0): Conv2d(80, 480, kernel_size=(1, 1), stride=(1, 1), bias=False)
                (1): BatchNorm2d(480, eps=1e-05, momentum=0.1, affine=True, track_running_stats=True)
                (2): SiLU(inplace=True)
              )
              (1): ConvNormActivation(
                (0): Conv2d(480, 480, kernel_size=(3, 3), stride=(1, 1), padding=(1, 1), groups=480, bias=False)
                (1): BatchNorm2d(480, eps=1e-05, momentum=0.1, affine=True, track_running_stats=True)
                (2): SiLU(inplace=True)
              )
              (2): SqueezeExcitation(
                (avgpool): AdaptiveAvgPool2d(output_size=1)
                (fc1): Conv2d(480, 20, kernel_size=(1, 1), stride=(1, 1))
                (fc2): Conv2d(20, 480, kernel_size=(1, 1), stride=(1, 1))
                (activation): SiLU(inplace=True)
                (scale_activation): Sigmoid()
              )
              (3): ConvNormActivation(
                (0): Conv2d(480, 80, kernel_size=(1, 1), stride=(1, 1), bias=False)
                (1): BatchNorm2d(80, eps=1e-05, momentum=0.1, affine=True, track_running_stats=True)
              )
            )
            (stochastic_depth): StochasticDepth(p=0.17142857142857146, mode=row)
          )
        )
        (4): ConvNormActivation(
          (0): Conv2d(80, 80, kernel_size=(1, 1), stride=(1, 1), bias=False)
          (1): BatchNorm2d(80, eps=1e-05, momentum=0.1, affine=True, track_running_stats=True)
          (2): SiLU(inplace=True)
        )
      )
    )
    (final_conv): Sequential(
      (0): Sequential(
        (0): Conv2d(80, 80, kernel_size=(3, 3), stride=(1, 1), padding=(1, 1), bias=False)
        (1): BatchNorm2d(80, eps=1e-05, momentum=0.1, affine=True, track_running_stats=True)
      )
      (1): ReLU(inplace=True)
      (2): Conv2d(80, 80, kernel_size=(1, 1), stride=(1, 1), bias=False)
    )
  )
)